sign_language_model.tflite (tflite, 229880 bytes, 10 tensors)

sequential_1/conv1d_3/BiasAdd/ReadVariableOp f4 [64]
0.036303356 0.12235791 0.07170204 0.0 -0.16411252 -0.2276216 -0.13659763 -0.17207712
-0.018640278 -0.05732462 -0.15233673 0.0 -0.03220499 0.0 0.14296424 0.0
-0.19550754 -0.004756241 -0.037999194 -0.007089196 0.0 0.03973297 0.0 -0.18523194
0.0 -0.29266354 0.040007144 -0.17121354 -0.0077935313 -0.0139039 -0.22680107 -0.005169096
-0.009864693 -0.170715 0.0 0.0 0.0 -0.08375361 0.0 -0.014927679
0.0 0.0 -0.0075136833 0.0 -0.004399402 0.03544807 0.0 -0.051229402
0.0 -0.21417141 0.0 0.093046606 -0.07207166 -0.15085894 -0.19969335 0.0
0.0 0.05313973 0.0 0.0 0.0 0.0 -0.348858 -0.21167973
00000000: d4b2 143d c996 fa3d 85d8 923d 0000 0000
00000010: 1d0d 28be a315 69be 40e0 0bbe fc34 30be
00000020: 7fb3 98bc 39cd 6abd 29fe 1bbe 0000 0000
00000030: 61e9 03bd 0000 0000 3865 123e 0000 0000
00000040: 2133 48be 3eda 9bbb 0ba5 1bbd 7c4c e8bb
00000050: 0000 0000 0abf 223d 0000 0000 71ad 3dbe
00000060: 0000 0000 ffd7 95be 88de 233d 9a52 2fbe
00000070: e160 ffbb 2fcd 63bc 8a3e 68be 8561 a9bb
00000080: 859f 21bc eacf 2ebe 0000 0000 0000 0000
00000090: 0000 0000 0387 abbd 0000 0000 3993 74bc
000000a0: 0000 0000 0000 0000 5835 f6bb 0000 0000
000000b0: dc28 90bb ff31 113d 0000 0000 ecd5 51bd
000000c0: 0000 0000 c04f 5bbe 0000 0000 388f be3d
000000d0: 4e9a 93bd c47a 1abe 6a7c 4cbe 0000 0000
000000e0: 0000 0000 0ca9 593d 0000 0000 0000 0000
000000f0: 0000 0000 0000 0000 849d b2be 92c2 58be

sequential_1/conv1d_4/BiasAdd/ReadVariableOp f4 [128]
0.07726315 -0.0025572495 -0.018492924 -0.026890943 -0.021392958 -0.030241653 0.22763246 -0.021248456
-0.047933828 -0.01564791 -0.10410784 -0.020498801 -0.014260915 -0.011239184 -0.0064623854 0.04334475
0.011906795 -0.0242493 0.07590611 -0.014846273 -0.03289418 0.22078352 -0.06672187 0.124464504
-0.031551827 -0.05549716 -0.024723655 -0.040967017 -0.040586047 -0.07819409 -0.009269453 -0.022045039
-0.023126354 -0.019333819 -0.07753799 0.0 0.17022906 -0.012233328 -0.02655002 0.02454747
-0.10046143 -0.030918958 -0.007327403 -0.015922103 -0.016503608 0.012486314 -0.10923386 -0.08279411
-0.031376272 0.043381292 0.058060948 0.06600345 -0.005188403 0.07888088 0.030303929 -0.024386445
-0.03485727 -0.04361565 -0.03342569 -0.020861994 -0.036608193 0.1547227 0.03942036 -0.15076321
-0.016322514 -0.028531073 -0.029305035 -0.017742254 -0.031589907 -0.025270164 0.0 -0.046911113
-0.016026124 -0.048936207 -0.02487082 0.009463019 -0.025062779 -0.011592556 -0.038894407 0.1643972
-0.0058010905 -0.01008372 -0.039703734 -0.048977274 -0.03659578 -0.02052956 0.046182692 0.07779444
-0.14372249 -0.04512487 -0.007027236 -0.07073384 -0.036653142 -0.029559148 -0.15839675 0.04600399
-0.03120701 -0.013231975 0.1565012 -0.016595604 0.08349755 0.07458831 0.17140439 -0.05033607
-0.034905206 -0.008842274 0.12857714 0.0 0.048060548 -0.011220492 -0.015948359 -0.0015649119
0.19068645 -0.018929675 -0.025288422 -0.004774419 -0.04444124 -0.026924327 0.17247832 -0.05315441
-0.030956687 -0.08669248 -0.02277748 0.0025890549 -0.027383834 -0.023780493 -0.038269524 -0.020440843
00000000: 243c 9e3d 8797 27bb 797e 97bc 654a dcbc
00000010: 4940 afbc 58bd f7bc 7c18 693e 3e11 aebc
00000020: 4356 44bd 0c30 80bc 7e36 d5bd 1aed a7bc
00000030: 9da6 69bc 8e24 38bc 6bc2 d3bb 448a 313d
00000040: b814 433c 78a6 c6bc aa74 9b3d c83d 73bc
00000050: 0cbc 06bd 1315 623e 7aa5 88bd 3fe7 fe3d
00000060: 7d3c 01bd fd50 63bd 4389 cabc 08cd 27bd
00000070: 8e3d 26bd 3924 a0bd e7de 17bc cc97 b4bc
00000080: 7b73 bdbc f561 9ebc 3dcc 9ebd 0000 0000
00000090: 8750 2e3e 4c6e 48bc 6d7f d9bc c717 c93c
000000a0: b9be cdbd c149 fdbc b61a f0bb 126f 82bc
000000b0: 9332 87bc 6693 4c3c 01b6 dfbd f58f a9bd
000000c0: 6884 00bd 95b0 313d 51d1 6d3d d12c 873d
000000d0: 7b03 aabb 4c8c a13d f23f f83c 15c6 c7bc
000000e0: 7fc6 0ebd 53a6 32bd 60e9 08bd c6e6 aabc
000000f0: 79f2 15bd a16f 1e3e 3e77 213d ac61 1abe
00000100: cbb6 85bc ffb9 e9bc 1d11 f0bc 3458 91bc
00000110: 6b64 01bd 6003 cfbc 0000 0000 de25 40bd
00000120: 3849 83bc 5571 48bd e4bd cbbc c70a 1b3c
00000130: 7550 cdbc b4ee 3dbc be4f 1fbd bd57 283e
00000140: 1317 bebb 3036 25bc 62a0 22bd 659c 48bd
00000150: 75e5 15bd 9c2d a8bc 102a 3d3d b152 9f3d
00000160: fd2b 13be dbd4 38bd ba44 e6bb e7dc 90bd
00000170: 9b21 16bd 0726 f2bc c232 22be ae6e 3c3d
00000180: d8a5 ffbc edca 58bc da41 203e 81f3 87bc
00000190: c300 ab3d c2c1 983d a284 2f3e 322d 4ebd
000001a0: c3f8 0ebd 2fdf 10bc baa9 033e 0000 0000
000001b0: 23db 443d 28d6 37bc 22a6 82bc bb1d cdba
000001c0: 4f43 433e 6812 9bbc aa29 cfbc bb72 9cbb
000001d0: 0508 36bd 6890 dcbc 289e 303e 70b8 59bd
000001e0: e198 fdbc d48b b1bd d697 babc 22ad 293b
000001f0: 1054 e0bc 4fcf c2bc 81c0 1cbd 8e73 a7bc

sequential_1/conv1d_5/BiasAdd/ReadVariableOp f4 [64]
-0.029764177 -0.012713659 -0.03205225 -0.013982863 0.0019345317 -0.0072262785 -0.011160972 0.18310495
0.04772967 -0.012763825 -0.0005714559 0.16446483 -0.010401384 -0.006028938 -0.0023692702 -0.011816726
-0.038212284 -0.030844567 -0.008820446 -0.04058564 -0.0053233947 -0.01006885 0.019768171 -0.15487829
-0.005122755 -0.006742113 0.012380747 0.17729308 0.1237779 0.0 0.0 0.066173285
-0.021201288 0.1325562 -0.0068944264 -0.006004197 -0.008259327 -0.009187936 -0.018083418 -0.01052106
-0.039603025 -0.037744332 -0.014634209 -0.005363182 -0.0039352984 -0.0051196795 -0.049405385 -0.041658737
-0.25448954 -0.018456725 -0.007776859 -0.00522261 -0.0164365 -0.0043512043 -0.018693551 -0.0059037968
-0.014312053 -0.026757881 -0.011067968 -0.018848687 -0.058390696 0.045722794 -0.027256262 -0.0072933147
00000000: 01d4 f3bc f34c 50bc 3849 03bd 6118 65bc
00000010: 1d90 fd3a 6bca ecbb 82dc 36bc dd7f 3b3e
00000020: 3080 433d 5d1f 51bc c2cd 15ba 7869 283e
00000030: 916a 2abc 668e c5bb c245 1bbb f19a 41bc
00000040: 7c84 1cbd bfad fcbc a283 10bc 213d 26bd
00000050: df6f aebb d1f7 24bc dcf0 a13c 6a98 1ebe
00000060: c9dc a7bb f1ec dcbb 9ed8 4a3c 518c 353e
00000070: 457f fd3d 0000 0000 0000 0000 dc85 873d
00000080: 53ae adbc d0bc 073e a4ea e1bb dbbe c4bb
00000090: 2152 07bc ff88 16bc ad23 94bc 8660 2cbc
000000a0: c836 22bd cd99 1abd 52c4 6fbc a2bd afbb
000000b0: adf3 80bb fcc2 a7bb 4d5d 4abd 5aa2 2abd
000000c0: 744c 82be 8f32 97bc 06d5 febb 6e22 abbb
000000d0: d7a5 86bc 8c94 8ebb 3823 99bc a374 c1bb
000000e0: 1a7d 6abc 5833 dbbc 6c56 35bc 9068 9abc
000000f0: 152b 6fbd d347 3b3d 8648 dfbc c2fc eebb

sequential_1/conv1d_3/Conv1D f4 [64, 1, 3, 3]
0.09801039 0.08750909 0.28924426 -0.42402822 0.03786741 0.24019308 0.21110974 0.29720634
1.1627438 -0.09360358 0.01749684 0.19404788 0.32368466 -0.3835659 -0.07545278 0.58228964
-0.3823816 -0.22094628 0.16604833 0.28075767 -0.62825584 0.030427685 -0.35404947 0.11822305
0.30064914 -0.47720551 -0.8569942 -0.010221332 0.110821545 0.11438632 -0.112978384 -0.07263507
0.07640059 -0.017970785 -0.016134873 -0.05076348 -0.2471421 -0.083765365 -0.4165217 -0.12284844
0.22122343 -0.7864808 0.2017064 0.4660612 0.16386499 0.21633303 0.37191352 -0.56228703
-0.46536136 0.5108864 0.26403233 -0.16503271 0.0038434975 0.11103356 0.20993748 -0.08784885
-0.40725172 -0.26499322 0.25896 -0.91103977 -0.0037676487 0.16720366 -0.04077396 0.29890564
0.246456 -0.84108025 -0.16302805 -0.17127696 -0.41984951 -0.10100096 0.096305296 -0.70995
-0.15811904 -0.31333157 0.63987595 0.31567082 0.14193894 0.42939687 0.51542544 -0.23236437
-0.016664637 0.11528063 -0.46766624 0.38295346 0.39979035 0.43366164 -0.3561356 -0.27509388
0.017493188 -0.027758477 0.069005474 0.40982956 -0.4232084 -0.40227488 0.2214579 -0.6591402
-0.10454867 0.056858353 0.14092898 -0.05579704 -0.10648127 -0.079714075 0.11409524 -0.10193848
0.16794059 -0.09371267 -0.08550755 -0.16680263 0.22175284 0.35844767 -0.6489342 -0.3693173
0.46892697 0.2299165 -0.3458442 -0.11062103 0.39221093 0.07057804 -0.08692976 0.03814499
-0.14012331 -0.1040271 -8.147955e-05 0.0024100542 0.11987084 0.15669191 0.044320688 -0.4592858
0.064066865 0.15925138 0.38459802 1.0358056 -0.085695095 -0.045906436 0.5994191 -0.039043203
0.14511287 0.0077621043 -0.05893384 -0.16466138 0.117188185 -0.10709594 -0.12802891 -0.1515363
0.25911814 0.20041458 -0.5764344 -0.25068754 -0.12166886 -0.34966514 -0.12270752 0.49750796
-0.27247897 -0.13771173 -0.037084576 0.12783942 -0.06709854 -0.04544245 -0.057422336 0.064985424
0.10956616 0.16827592 -0.24780162 0.5936102 1.0312358 -0.2623686 0.15914549 0.6047824
0.07370433 0.3731757 0.45458707 0.005483367 -0.099855416 0.14503473 -0.016964793 0.06882686
0.039070584 -0.068221696 0.060853373 0.08264296 -0.13363409 -0.10598185 0.12676445 0.13443118
-0.067369565 -0.049624674 -0.15981895 0.09728995 -0.090352155 0.08187384 0.4202933 0.74364775
-0.48368338 0.04694816 0.52175343 -0.117932275 0.40430284 0.9574608 -0.055713087 -0.13627511
0.067194864 -0.030800387 -0.085096695 -0.102540016 -0.01630558 0.008199558 0.049659237 0.20614444
0.25872272 -0.65363777 -0.27282435 -0.045046594 -0.2957013 -0.028381655 0.13984916 -0.43643907
-0.09803459 -0.085529834 -0.102295205 -0.12846267 -0.04445383 -0.048420332 0.012279302 0.048196286
0.08275679 -0.010623931 0.17126292 0.20901738 -0.24369207 0.33728117 -0.36170128 0.16078912
0.27324012 -0.5821323 -0.12020453 0.4601675 0.4306666 -0.17540768 0.187697 0.6035047
0.012021263 -0.084739916 0.9574672 0.07304377 0.26766232 0.5167087 0.1614451 0.13633934
0.13664429 -0.15482906 0.21572813 1.3090173 0.068292655 -0.14094296 0.12461368 -0.08978608
00000000: acb9 c83d f737 b33d d317 943e 3a1a d9be
00000010: db1a 1b3d 2df5 753e 272d 583e 6e2b 983e
00000020: cad4 943f 3cb3 bfbd 8855 8f3c 7db4 463e
00000030: ffb9 a53e c062 c4be fd86 9abd ef10 153f
00000040: 85c7 c3be be3f 62be 9308 2a3e 78bf 8f3e
00000050: 60d5 20bf 7b43 f93c f945 b5be ed1e f23d
00000060: afee 993e 4854 f4be f963 5bbf 6077 27bc
00000070: 68f6 e23d 6043 ea3d 3661 e7bd b2c1 94bd
00000080: ea77 9c3d 7837 93bc 482d 84bc 5eed 4fbd
00000090: d212 7dbe 2d8d abbd 5542 d5be f797 fbbd
000000a0: 6588 623e ce56 49bf 1f8c 4e3e 939f ee3e
000000b0: 39cc 273e 6886 5d3e 736b be3e 0bf2 0fbf
000000c0: d843 eebe 73c9 023f 3f2f 873e 56fe 28be
000000d0: 30e3 7b3b 9065 e33d daf9 563e 19ea b3bd
000000e0: 4c83 d0be 31ad 87be 6896 843e e739 69bf
000000f0: a8ea 76bb 7037 2b3e 9902 27bd 290a 993e
00000100: f65e 7c3e 0951 57bf d3f0 26be 3a63 2fbe
00000110: 84f6 d6be 97d9 cebd b63b c53d 48bf 35bf
00000120: f5e9 21be ff6c a0be e9ce 233f 9b9f a13e
00000130: 7158 113e e8d9 db3e ecf2 033f edf0 6dbe
00000140: 4784 88bc 4018 ec3d f371 efbe 7a12 c43e
00000150: 52b1 cc3e e608 de3e 6857 b6be 1bd9 8cbe
00000160: e04d 8f3c bf65 e3bc be52 8d3d 2ed5 d13e
00000170: c5ae d8be f9f6 cdbe dcc5 623e 6abd 28bf
00000180: 9d1d d6bd 4ee4 683d b04f 103e 708b 64bd
00000190: da12 dabd 2241 a3bd c4aa e93d 1fc5 d0bd
000001a0: 9ef8 2b3e 6eec bfbd 951e afbd 4fce 2abe
000001b0: 2d13 633e 7486 b73e 8d20 26bf 2817 bdbe
000001c0: 3217 f03e 3b6f 6b3e 7e12 b1be 478d e2bd
000001d0: dfcf c83e 388b 903d 3b08 b2bd ec3d 1c3d
000001e0: 7c7c 0fbe 290c d5bd 00e0 aab8 00f2 1d3b
000001f0: d87e f53d d873 203e 9c89 353d 8227 ebbe
00000200: 7d35 833d cb12 233e 08ea c43e 4795 843f
00000210: e980 afbd 6308 3cbd 8873 193f c4eb 1fbd
00000220: 7898 143e 4059 fe3b 9c64 71bd fe9c 28be
00000230: 5c00 f03d 1e55 dbbd 031a 03be 552c 1bbe
00000240: 22ab 843e 7b39 4d3e 3491 13bf 1e5a 80be
00000250: 862d f9bd 4f07 b3be 154e fbbd 5db9 fe3e
00000260: 5d82 8bbe 4e04 0dbe ffe5 17bd 56e8 023e
00000270: f66a 89bd dd21 3abd af33 6bbd 1417 853d
00000280: 3964 e03d 8650 2c3e b5bf 7dbe d7f6 173f
00000290: 89ff 833f 2d55 86be 09f7 223e 05d3 1a3f
000002a0: 4cf2 963d e310 bf3e a3bf e83e d1ad b33b
000002b0: ff80 ccbd fc83 143e c0f9 8abc 19f5 8c3d
000002c0: 7a08 203d d1b7 8bbd 6341 793d b640 a93d
000002d0: 60d7 08be 030d d9bd 8ace 013e 54a8 093e
000002e0: 0ef9 89bd 3e43 4bbd 94a7 23be f43f c73d
000002f0: 8d0a b9bd 79ad a73d af30 d73e b35f 3e3f
00000300: 59a5 f7be b74c 403d a291 053f 7a86 f1bd
00000310: c800 cf3e 271c 753f 6833 64bd b48b 0bbe
00000320: 769d 893d 1851 fcbc 2d47 aebd 8000 d2bd
00000330: 4893 85bc 7057 063c 7c67 4b3d 8717 533e
00000340: 4e77 843e ce54 27bf a2af 8bbe c782 38bd
00000350: 2966 97be a580 e8bc 9e34 0f3e f174 dfbe
00000360: 5cc6 c8bd 442a afbd 2680 d1bd b88b 03be
00000370: 3815 36bd 6654 46bd 202f 493c 7869 453d
00000380: 647c a93d ff0f 2ebc 8c5f 2f3e a708 563e
00000390: 6a8a 79be 1eb0 ac3e e930 b9be e7a5 243e
000003a0: 21e6 8b3e 9f06 15bf cb2d f6bd 139b eb3e
000003b0: 5580 dc3e 129e 33be a433 403e 497f 1a3f
000003c0: d5f4 443c 1f8c adbd 921c 753f f997 953d
000003d0: 090b 893e 0547 043f dd51 253e 8a9c 0b3e
000003e0: 7bec 0b3e 828b 1ebe d6e7 5c3e e18d a73f
000003f0: 05dd 8b3d 5a53 10be 7535 ff3d c4e1 b7bd

sequential_1/conv1d_4/Conv1D f4 [128, 1, 3, 64]
0.07063123 -0.21194704 0.09384006 -0.041008145 0.14085908 0.1123423 0.16567855 -0.061614376
-0.026693348 0.26611683 0.21350984 0.06756219 0.14837931 -0.07320681 -0.017421393 -0.02824226
0.06672922 -0.045906477 0.110557295 0.04352345 -0.017396793 0.06520701 -0.019161627 0.19748455
0.046005264 0.23132038 0.07939169 0.17356361 0.03475994 0.0347424 0.06610665 -0.09156683
-0.26107723 -0.11647845 0.08962625 -0.08578557 -0.06756239 0.26620814 -0.01762329 -0.06949446
-0.0075374693 0.009112313 -0.05912322 0.047681004 0.25946155 -0.010814154 -0.027751498 0.12273176
0.014650397 0.1781523 0.071591064 -0.2433714 -0.15554148 0.29970035 0.05207933 -0.059113383
0.0049261004 0.07282578 0.0030985996 -0.026327431 -0.08262066 -0.083534114 0.16289559 0.102661625
0.2684487 -0.21848676 0.0049445406 0.033825576 -0.15836199 -0.008204873 -0.09499221 -0.01118721
-0.18989782 -0.38101944 -0.011095002 -0.02751761 0.4479558 -0.010436468 -0.24340688 -0.0040936247
0.0048420546 0.08879988 -0.052982844 0.02175018 -0.05776407 0.20646134 -0.046981897 -0.06322742
-0.01611685 0.0247721 -0.09429465 -0.323495 0.06469333 -0.047093198 -0.26194653 -0.023746379
-0.22832094 -0.3693833 -0.076413214 -0.08181853 0.026893616 0.21563563 -0.008439876 -0.17880705
-0.02153933 -0.006180659 0.09161493 0.00025501847 0.29593477 -0.09579499 0.078178704 0.040346637
-0.001092501 0.23918913 -0.06721335 -0.10529378 0.050123718 0.24287134 0.0027526172 -0.07247347
-0.083672255 -0.079415895 0.06455527 0.06133902 -0.048153967 -0.00830356 -0.10450824 0.35888198
-0.050963413 0.3114234 -0.09088818 0.008426204 0.10808276 -0.24525477 -0.2752069 -0.1898397
0.3999466 0.1521365 -0.1252802 -0.028284498 -0.36005878 -0.032421462 0.25441805 0.0023986474
-0.3051803 -0.0630703 -0.18682253 0.063945375 -0.10146021 -0.27260876 0.012581997 -0.11612041
0.0494141 -0.10459943 -0.017205952 -0.061174683 -0.019770987 -0.042819623 0.382852 -0.09834122
0.33467203 0.3608892 -0.033796623 0.06932598 -0.09418467 -0.3150915 0.012746446 0.3578815
-0.0054536015 -0.025376596 0.006419245 0.04723312 -0.2089401 0.21762513 0.025267676 -0.16189238
-0.03886947 -0.13066132 -0.042141527 0.0997563 0.22799174 -0.41340962 -0.20376179 0.0032828301
0.023268446 0.015854023 0.09070866 0.04040727 -0.04299938 -0.019241542 -0.036403842 -0.4348953
0.025385048 -0.1461178 0.06249917 0.041952983 0.09363002 0.26118207 -0.019719925 0.14519592
-0.21924679 -0.47238553 0.24219643 -0.060448296 0.24687488 0.016588658 -0.3414931 0.00999739
0.21427079 -0.00463064 0.28493553 -0.03528464 -0.051486757 0.16452679 -0.033033818 0.12884672
0.0043078586 0.2816537 0.24494421 0.0127411075 0.037823286 -0.10141165 -0.21652031 -0.010436868
0.11269479 0.21935797 0.06913328 0.03451687 -0.055573445 0.30456004 -0.08292123 -0.0034058893
0.0098045245 -0.011645719 -0.0058000158 -0.044510294 0.3662273 -0.07099021 -0.04096016 0.16947451
0.07965635 0.25123113 0.10026111 -0.29717615 -0.32968938 0.3137141 0.10283128 0.011138439
-0.09655713 0.3233563 0.013653696 0.0023299828 -0.084161945 -0.048170418 0.25077477 0.22496212
00000000: 1ba7 903d a508 59be 382f c03d 28f8 27bd
00000010: 5d3d 103e b813 e63d a3a7 293e 5b5f 7cbd
00000020: 02ac dabc 7740 883e 53a2 5a3e 0c5e 8a3d
00000030: bff0 173e 74ed 95bd 4fb7 8ebc 505c e7bc
00000040: 54a9 883d 6e08 3cbd dd6b e23d a545 323d
00000050: b883 8ebc 418b 853d d8f8 9cbc 6439 4a3e
00000060: 0470 3c3d 40df 6c3e 1c98 a23d a9ba 313e
00000070: 7060 0e3d 0c4e 0e3d ec62 873d 6487 bbbd
00000080: eaab 85be 418c eebd f88d b73d 58b0 afbd
00000090: 265e 8abd 6f4c 883e b85e 90bc 1d53 8ebd
000000a0: e0fc f6bb d04b 153c 312b 72bd 284d 433d
000000b0: 25d8 843e d92d 31bc 1c57 e3bc ca5a fb3d
000000c0: 3808 703c 8e6d 363e 569e 923d 5a36 79be
000000d0: 4446 1fbe 5372 993e 2351 553d e020 72bd
000000e0: 206b a13b af25 953d e011 4b3b a0ac d7bc
000000f0: 0535 a9bd ef13 abbd 1ace 263e 4240 d23d
00000100: 1c72 893e feba 5fbe d005 a23b b08c 0a3d
00000110: a529 22be bb6d 06bc 478b c2bd 8f4a 37bc
00000120: 9374 42be fb14 c3be d0c7 35bc 9c6c e1bc
00000130: 765a e53e b8fd 2abc a73f 79be d023 86bb
00000140: 19aa 9e3b b6dc b53d 8a04 59bd 6f2d b23c
00000150: 049a 6cbd 9a6a 533e 1770 40bd 617d 81bd
00000160: 7c07 84bc dcee ca3c 8e1d c1bd 23a1 a5be
00000170: f07d 843d cce4 40bd db1d 86be c487 c2bc
00000180: f7cc 69be cf1f bdbe 887e 9cbd 7990 a7bd
00000190: 0050 dc3c 96cf 5c3e 6847 0abc 3219 37be
000001a0: 4073 b0bc 2087 cabb 9ca0 bb3d 00b4 8539
000001b0: c384 973e 2a30 c4bd 281c a03d 8442 253d
000001c0: 4032 8fba ffed 743e 27a7 89bd 44a4 d7bd
000001d0: 874e 4d3d 44b3 783e 4165 343b f86c 94bd
000001e0: 5c5c abbd cda4 a2bd 8e35 843d a03e 7b3d
000001f0: 183d 45bd a80b 08bc 6b08 d6bd 61bf b73e
00000200: 03bf 50bd e372 9f3e 9523 babd 100e 0a3c
00000210: 7e5a dd3d 1124 7bbe ebe7 8cbe 5765 42be
00000220: cdc5 cc3e acc9 1b3e 7449 00be e4b4 e7bc
00000230: a059 b8be 5ecc 04bd 1543 823e a032 1d3b
00000240: 9840 9cbe 002b 81bd 684e 3fbe cbf5 823d
00000250: 5fca cfbd 6093 8bbe b824 4e3c 8ad0 edbd
00000260: 7066 4a3d 3a38 d6bd 7ff3 8cbc 4e92 7abd
00000270: c4f6 a1bc a163 2fbd 2d05 c43e 1f67 c9bd
00000280: 225a ab3e 78c6 b83e 546e 0abd c8fa 8d3d
00000290: e4e3 c0bd ac53 a1be 78d6 503c 3e3c b73e
000002a0: 20b4 b2bb 94e2 cfbc 8858 d23b 8477 413d
000002b0: 65f4 55be 1fd9 5e3e 28fe ce3c 1ec7 25be
000002c0: 9835 1fbd 15cc 05be 989c 2cbd 084d cc3d
000002d0: ab76 693e 6daa d3be eea6 50be c024 573b
000002e0: 789d be3c 4ce0 813c 76c5 b93d 1882 253d
000002f0: 1e20 30bd 70a0 9dbc 321c 15bd 99aa debe
00000300: 4ef4 cf3c e89f 15be 21ff 7f3d e4d6 2b3d
00000310: 19c1 bf3d a8b9 853e ae8b a1bc 3dae 143e
00000320: 3b82 60be 84dc f1be 5702 783e a298 77bd
00000330: c5cc 7c3e f0e4 873c 2fd8 aebe 18cc 233c
00000340: cd69 5b3e a0bc 97bb 12e3 913e a086 10bd
00000350: c7e3 52bd b679 283e 784e 07bd 65f0 033e
00000360: f028 8d3b ea34 903e a8d2 7a3e 14c0 503c
00000370: 97ec 1a3d e9b0 cfbd 80b7 5dbe 66ff 2abc
00000380: 87cc e63d 609f 603e c095 8d3d 9061 0d3d
00000390: fba0 63bd 4bef 9b3e 9bd2 a9bd 5735 5fbb
000003a0: 28a3 203c b0cd 3ebc 0f0e bebb 6d50 36bd
000003b0: 2582 bb3e 5163 91bd d7c5 27bd ba8a 2d3e
000003c0: de22 a33d 5ea1 803e b255 cd3d 7927 98be
000003d0: 0ccd a8be 229f a03e 3599 d23d 007e 363c
000003e0: bfbf c5bd f58e a53e c0b3 5f3c a0b2 183b
000003f0: 195d acbd 584e 45bd 8d65 803e 785c 663e

sequential_1/conv1d_5/Conv1D f4 [64, 1, 3, 128]
0.053796444 0.044469517 -0.1128407 -0.06839226 -0.09183984 -0.100596204 -0.105705716 -0.05583291
0.006973709 0.012787595 0.019295037 -0.071680345 -0.0355251 0.06582287 -0.06549788 -0.10987219
0.070594735 0.06520693 -0.117221594 -0.09142422 0.08309694 -0.023109132 0.029982103 -0.10502109
0.06276061 -0.107997485 -0.095145434 0.019927071 0.06917879 -0.124582276 0.076165766 0.06267473
0.08242066 0.041867726 -0.088559955 0.074980915 -0.02909964 0.06758496 0.042978406 -0.11283053
-0.07232155 -0.053941317 0.010798134 0.03421582 -0.059334796 0.046423886 -0.031238463 0.02966344
-0.04053111 0.09113389 0.05440573 -0.009773337 0.02823176 -0.009718634 -0.11136654 0.041086078
0.018136121 0.051001016 0.011924021 -0.10070263 0.08501372 -0.01265702 -0.013006966 0.022749942
-0.098123066 0.023854472 0.0030722767 -0.08071278 0.10204169 0.04548113 0.071846515 -0.057683133
-0.083814874 -0.032796748 -0.05400435 0.01686803 -0.024231754 0.062651135 0.085509315 -0.13183904
0.032500673 -0.0010298529 0.0055462816 -0.09889942 -0.08337312 0.05115977 0.012122948 0.047562536
-0.1145662 -0.086848825 -0.042798303 0.08910707 -0.0050768196 -0.023106005 0.079315096 -0.05683292
0.011651605 0.0614519 0.0018382123 -0.0644566 0.010173759 0.038147807 -0.118175365 -0.007586848
-0.016193695 0.0249428 0.011616991 -0.08342853 0.081687845 0.09878444 0.010268695 0.01736363
-0.066693835 0.049062066 0.016762272 -0.057378102 0.01931055 -0.058270417 -0.11976072 -0.10213339
0.030720325 0.05306362 0.058417525 0.042627566 0.020705177 0.015333436 -0.064685844 -0.08732459
-0.008570106 -0.041578904 -0.03091881 0.07485901 0.012720384 -0.010799497 -0.11579994 -0.10060357
0.06729684 0.04259941 -0.028408084 0.055583015 -0.11556687 -0.04116315 0.062477417 0.04307959
-0.06718971 -0.003466243 0.074107215 -0.06759708 -0.008757019 0.09377009 0.06133249 -0.023481889
-0.07249945 -0.08747717 0.04861556 -0.055336073 0.082617566 0.067223534 -0.08633517 -0.08417243
0.08164215 0.08634667 -0.032951113 0.046067864 -0.030131603 -0.062476486 0.041731626 0.013910304
-0.1256152 0.046124507 0.069685176 -0.015432283 -0.07692154 -0.067065194 -0.11620739 -0.07630079
0.08237867 -0.02798047 0.024712075 -0.10398715 0.057463966 0.017014217 0.03380696 0.03594111
0.010465698 -0.12010777 0.08699288 -0.041653592 0.050236106 -0.08186985 0.06285796 0.028991684
-0.016308166 -0.009915672 -0.09776882 0.033442862 -0.033609256 0.07199797 0.050885886 -0.08509475
-0.057496592 -0.06294164 -0.05575981 -0.084054425 -0.041074574 0.022818906 0.016051043 -0.010399033
-0.093366385 -0.06430895 -0.09786693 -0.11315718 -0.038886186 -0.038373023 -0.056960072 0.036020134
0.040907037 -0.08792291 -0.07405278 -0.09279731 -0.01436191 0.048460238 -0.0047971504 -0.01721339
0.0032815188 -0.014497931 -0.10020062 0.08040498 -0.03143577 0.049984697 0.005944039 0.06056978
-0.094251685 0.07627621 -0.0007280756 0.0968796 -0.0021462287 -0.024521401 0.030091783 0.009845041
0.00892151 -0.054179683 -0.0033033416 -0.008507149 -0.07575722 0.058710154 -0.069505036 0.0032274723
0.046009 -0.03895063 0.0010464119 -0.055167794 0.0016202446 0.012782991 0.019834619 -0.121868074
00000000: a959 5c3d ab25 363d 0619 e7bd 3e11 8cbd
00000010: 8716 bcbd 6205 cebd 3d7c d8bd 0db1 64bd
00000020: b683 e43b 1083 513c a010 9e3c 25cd 92bd
00000030: c482 11bd 24ce 863d c123 86bd ac04 e1bd
00000040: f993 903d 368b 853d e011 f0bd 9f3c bbbd
00000050: ba2e aa3d 5d4f bdbc 079d f53c 4c15 d7bd
00000060: a288 803d c92d ddbd 9cdb c2bd 193e a33c
00000070: 9cad 8d3d fe24 ffbd ccfc 9b3d 9c5b 803d
00000080: 2acc a83d 7e7d 2b3d ec5e b5bd 988f 993d
00000090: 5e62 eebc fc69 8a3d 200a 303d b113 e7bd
000000a0: 521d 94bd 92f1 5cbd a8ea 303c e325 0c3d
000000b0: 0b09 73bd f926 3e3d cee7 ffbc be00 f33c
000000c0: f303 26bd 68a4 ba3d 8bd8 5e3d 5920 20bc
000000d0: 4b46 e73c e83a 1fbc 2414 e4bd e049 283d
000000e0: 3492 943c 71e6 503d f85c 433c 2e3d cebd
000000f0: ac1b ae3d 645f 4fbc 2b1b 55bc 165e ba3c
00000100: bff4 c8bd 746a c33c 4058 493b be4c a5bd
00000110: 3cfb d03d 6c4a 3a3d 4424 933d 2645 6cbd
00000120: 22a7 abbd e255 06bd aa33 5dbd d32e 8a3c
00000130: ac81 c6bc 3d4f 803d 821f af3d d000 07be
00000140: 6d1f 053d 21fc 86ba 95bd b53b c78b cabd
00000150: 87bf aabd e88c 513d 549f 463c efd0 423d
00000160: afa1 eabd ccdd b1bd 464d 2fbd c47d b63d
00000170: 735b a6bb ce48 bdbc f46f a23d a3c9 68bd
00000180: 60e6 3e3c fdb4 7b3d 2bf0 f03a d201 84bd
00000190: d7af 263c e040 1c3d ed05 f2bd 189b f8bb
000001a0: a4a8 84bc d854 cc3c 3155 3e3c 94dc aabd
000001b0: f54b a73d 7f4f ca3d 073e 283c 2c3e 8e3c
000001c0: c796 88bd 4ef5 483d 0851 893c 4d05 6bbd
000001d0: 2931 9e3c f6ac 6ebd 1c45 f5bd 502b d1bd
000001e0: 31a9 fb3c 3d59 593d 3747 6f3d 3e9a 2e3d
000001f0: e79d a93c 1839 7b3c 037a 84bd 3cd7 b2bd
00000200: a169 0cbc a44e 2abd 7249 fdbc ae4f 993d
00000210: 2869 503c 60f0 30bc 8528 edbd 3f09 cebd
00000220: edd2 893d b87c 2e3d 12b8 e8bc 04ab 633d
00000230: 53ae ecbd b19a 28bd 52e8 7f3d 3974 303d
00000240: c29a 89bd e829 63bb 86c5 973d 5670 8abd
00000250: 9a79 0fbc 880a c03d c737 7b3d 175d c0bc
00000260: 977a 94bd 3b27 b3bd 1c21 473d 14a8 62bd
00000270: 6633 a93d 7eac 893d 7ed0 b0bd 9862 acbd
00000280: 0034 a73d 86d6 b03d bff7 06bd a8b1 3c3d
00000290: 8dd6 f6bc 58e7 7fbd c8ee 2a3d 0be8 633c
000002a0: 45a1 00be 0ded 3c3d 1ab7 8e3d b0d7 7cbc
000002b0: 0a89 9dbd 7a59 89bd 24fe edbd 9743 9cbd
000002c0: 26b6 a83d 4c37 e5bc fa70 ca3c 37f7 d4bd
000002d0: 565f 6b3d 6661 8b3c 2b79 0a3d fc36 133d
000002e0: 5278 2b3c 10fb f5bd 5329 b23d f59c 2abd
000002f0: 60c4 4d3d 61ab a7bd adbb 803d f87f ed3c
00000300: b498 85bc 5875 22bc 053b c8bd 62fb 083d
00000310: dca9 09bd ac73 933d b86d 503d 2846 aebd
00000320: 8c81 6bbd 8ce7 80bd 6664 64bd ba24 acbd
00000330: d03d 28bd b7ee ba3c 7a7d 833c b560 2abc
00000340: e036 bfbd 69b4 83bd 756e c8bd f4be e7bd
00000350: 1f47 1fbd 082d 1dbd f74e 69bd d989 133d
00000360: 238e 273d ed10 b4bd fca8 97bd 840c bebd
00000370: 374e 6bbc 3e7e 463d 6a31 9dbb 1803 8dbc
00000380: c00e 573b bb88 6dbc fc35 cdbd 5eab a43d
00000390: cbc2 00bd c1bc 4c3d 37c6 c23b 0518 783d
000003a0: 0707 c1bd b436 9c3d 54dc 3eba d068 c63d
000003b0: bea7 0cbb 1be1 c8bc 0b83 f63c 184d 213c
000003c0: 862b 123c 84eb 5dbd e07c 58bb 9261 0bbc
000003d0: 9a26 9bbd 0f7a 703d a858 8ebd 0084 533b
000003e0: ef73 3c3d b28a 1fbd c227 893a a0f7 61bd
000003f0: 635e d43a c06f 513c 367c a23c f895 f9bd

sequential_1/dense_3/BiasAdd/ReadVariableOp f4 [26]
0.16431141 -0.16729665 -0.6495071 0.4944591 0.5356434 -0.77172744 0.28395647 0.55636364
-0.5460549 0.68293196 0.161625 -0.4263328 -0.022645107 0.3077397 0.33536023 -0.25605804
-0.17214914 0.073898844 0.16463652 0.17081127 -0.2660468 -0.7223757 0.02695488 -0.27977955
-0.12386289 0.3251097
00000000: 4041 283e d04f 2bbe 1946 26bf be29 fd3e
00000010: ed1f 093f ee8f 45bf be62 913e d96d 0e3f
00000020: 41ca 0bbf a1d4 2e3f 0681 253e 4b48 dabe
00000030: 3b82 b9bc 0f90 9d3e 56b4 ab3e 0a1a 83be
00000040: dd47 30be 4758 973d 7a96 283e 26e9 2e3e
00000050: 4937 88be 9ded 38bf 7bd0 dc3c 443f 8fbe
00000060: d4ab fdbd c774 a63e

sequential_1/dense_2/BiasAdd/ReadVariableOp f4 [64]
0.08148022 0.09570823 0.15798417 -0.08645209 -0.012648562 0.089197285 -0.10883765 0.12687191
0.10703293 -0.055470236 0.0043960013 -0.12796997 0.19431128 -0.107076496 -0.012469004 -0.13213255
0.08162662 0.05547552 0.03952323 0.08892088 0.030248106 0.013455522 0.037948642 0.053818893
0.035374578 -0.04400024 0.021850763 0.1303656 0.20119768 -0.09338152 0.025346668 0.101353616
-0.14236803 -0.004396747 0.08304511 0.059000224 0.20842764 0.15009613 -0.00600518 0.08860403
0.021308757 0.030273402 0.0 0.015416671 0.12184265 -0.0810434 0.083884925 0.17406794
0.011781563 -0.2144789 0.16870013 0.0061585833 -0.11288477 0.100532584 0.071136564 -0.21203968
0.07073632 0.046179697 0.120260894 -0.0661498 -0.09502933 -0.020501463 0.10879779 0.025247002
00000000: 1adf a63d ad02 c43d 9ac6 213e cb0d b1bd
00000010: ea3b 4fbc 11ad b63d 46e6 debd b6ea 013e
00000020: 1534 db3d c234 63bd 550c 903b 8f0a 03be
00000030: 89f9 463e ec4a dbbd cb4a 4cbc c14d 07be
00000040: db2b a73d 4d3a 633d 1ce3 213d 261c b63d
00000050: e0ca f73c 8d74 5c3c 0970 1b3d 3371 5c3d
00000060: efe4 103d 9839 34bd 5f00 b33c 8f7e 053e
00000070: c406 4e3e cf3e bfbd d1a3 cf3c 7c92 cf3d
00000080: edc8 11be 9612 90bb 8e13 aa3d 38aa 713d
00000090: 0e6e 553e cdb2 193e 1ac7 c4bb 0876 b53d
000000a0: b48f ae3c edff f73c 0000 0000 3496 7c3c
000000b0: a488 f93d 15fa a5bd dccb ab3d de3e 323e
000000c0: 7507 413c 5ba0 5bbe babf 2c3e f1cd c93b
000000d0: 2130 e7bd 07e4 cd3d 0cb0 913d ee20 59be
000000e0: 34de 903d ec26 3d3d 584b f63d 8c79 87bd
000000f0: bd9e c2bd aff2 a7bc 60d1 de3d cdd2 ce3c

sequential_1/dense_2/MatMul f4 [64, 64]
-0.20155558 0.10707931 -0.1095941 -0.037773848 -0.045030802 0.1787055 0.015507162 0.22868164
-0.023683466 0.21483062 -0.16223276 -0.35709557 -0.15119751 0.09534248 -0.14166681 -0.15387355
0.17374468 -0.038883053 0.12574647 -0.040843375 0.1587028 -0.09017895 0.07484532 -0.620083
0.07789866 0.015876293 -0.3746271 0.39705148 -0.24317503 0.1920458 -0.17562105 0.30706567
-0.36529 -0.12401446 -0.021885518 -0.016826376 0.124831125 0.029807368 -0.12561318 0.105928406
-0.061730776 -0.0060679317 -0.020626903 -0.08864312 0.121477425 -0.21079794 -0.28416023 0.20262936
0.90310806 0.010430196 0.16012906 -0.1972584 0.053133175 0.10203486 0.09184413 0.13529845
0.04045074 0.057582036 -0.0400706 0.18262964 -0.4432152 -0.014452097 0.06629859 0.030787028
-0.18209377 -0.029564291 0.10369363 -0.19531597 0.22559513 -0.08748766 -0.19644015 0.40019226
-0.41977626 -0.04328388 -0.129228 -0.23315866 -0.1317723 0.16332844 -0.08847062 -0.0528227
-0.15405037 -0.22229634 -0.21632212 0.12421169 -0.08593332 -0.020875415 0.45574078 -0.00035542218
0.08535775 0.16188468 -0.4007454 -0.0052302275 -0.17452846 -0.044625774 -0.04088731 0.48736474
0.153909 -0.24788992 0.14434429 -0.14370258 0.0629261 -0.05709757 0.039843805 0.21686295
-0.18417789 0.18093994 -0.18510225 -0.08577637 0.122061625 -0.021203086 0.24899778 0.028556196
-0.22156754 -0.143566 0.12499641 -0.16767237 -0.15106055 0.06469823 0.20580249 -0.062195588
0.15605856 0.036178365 0.099833794 0.13513495 0.123333335 -0.24417913 -0.1282231 0.20824926
-0.025567174 0.19371554 -0.1333796 0.17139004 0.121516466 -0.02772182 -0.15286615 0.08794575
-0.40393722 -0.0064757764 -0.113275655 0.30363324 0.1546102 0.0072639594 0.124820106 0.21529551
0.013874171 -0.023541596 -0.17471053 -0.2188924 0.08168481 0.121834874 -0.09868964 -0.48374122
-0.12861502 0.0030814386 -0.5432951 0.35626578 -0.04507828 0.11170547 0.016093552 0.3675295
-0.11248014 0.17777406 -0.1308114 -0.17357607 0.15738572 -0.048370905 -0.00046741375 0.16591166
-0.04276314 0.073962025 0.19063829 -0.13723493 -0.084854625 -0.1536472 -0.10962319 -0.16737226
-0.6571032 0.19054583 0.12204544 -0.18944904 0.2049159 0.10266798 0.08807649 0.14656341
-0.012511414 0.018805373 0.010433087 -0.031755652 -0.2898752 -0.08327817 -0.1529443 0.20598139
-0.1831807 -0.065182164 0.021904215 0.18665297 -0.52889997 -0.13319084 0.1790816 0.07305149
0.101846114 -0.16098712 -0.05206807 -0.021678833 0.07569118 -0.04292524 0.25866586 0.121006444
-0.10388116 0.18599571 -0.0323413 -0.03268231 0.14971347 0.13148503 -0.28908837 0.43551084
-0.1426246 -0.03938447 0.2918538 -0.35599652 0.21582285 -0.008483857 0.06458147 -0.41159573
0.5619126 0.049508125 -0.15222855 -0.06893101 -0.057963178 0.01990877 -0.016750447 0.08190222
-0.09248443 0.20542563 -0.10570386 -0.08216569 0.10011505 0.20444687 -0.20332532 0.17894067
-0.4451655 -0.0497952 0.14599027 0.14689882 0.020770192 -0.013873486 0.20966278 0.1917368
0.14443389 -0.16946165 -0.21355265 0.11061077 0.08968423 -0.046737105 0.08412035 -0.06257244
00000000: 9664 4ebe 664c db3d df72 e0bd c0b8 1abd
00000010: 3872 38bd 93fe 363e c011 7e3c 852b 6a3e
00000020: d403 c2bc 8ffc 5b3e 5820 26be 3bd5 b6be
00000030: 85d3 1abe eb42 c33d 1b11 11be 0791 1dbe
00000040: 20ea 313e d643 1fbd afc3 003e 624b 27bd
00000050: fd82 223e beaf b8bd 8148 993d c2bd 1ebf
00000060: 5589 9f3d 000f 823c 20cf bfbe 554a cb3e
00000070: e002 79be a7a7 443e 01d6 33be b637 9d3e
00000080: 4a07 bbbe 4bfb fdbd 4249 b3bc 78d7 89bc
00000090: 76a7 ff3d 952e f43c bea0 00be fef0 d83d
000000a0: 69d9 7cbd 80d5 c6bb c0f9 a8bc 868a b5bd
000000b0: 28c9 f83d 6adb 57be 737d 91be 127e 4f3e
000000c0: 1732 673f 6ae3 2a3c dff8 233e 1bfe 49be
000000d0: 2ca2 593d a7f7 d03d c618 bc3d ad8b 0a3e
000000e0: adaf 253d 24db 6b3d 1221 24bd 4403 3b3e
000000f0: 1aed e2be 7dc8 6cbc 8ec7 873d 1435 fc3c
00000100: ca76 3abe d030 f2bc 535d d43d e900 48be
00000110: 6902 673e bb2c b3bd 9b27 49be 00e6 cc3e
00000120: eaec d6be 704a 31bd 5854 04be 25c1 6ebe
00000130: 51ef 06be 923f 273e 1630 b5bd 9e5c 58bd
00000140: 61bf 1dbe a7a1 63be 8c83 5dbe b362 fe3d
00000150: cffd afbd eb02 abbc db56 e93e f557 bab9
00000160: 0bd0 ae3d 19c5 253e 802e cdbe 5462 abbb
00000170: 97b7 32be 84c9 36bd 7479 27bd df87 f93e
00000180: 529a 1d3e dbd6 7dbe fdce 133e c526 13be
00000190: 66df 803d 24df 69bd 4233 233d 5211 5e3e
000001a0: 2199 3cbe 5248 393e 728b 3dbe 85ab afbd
000001b0: 72fb f93d 18b2 adbc 46f9 7e3e afee e93c
000001c0: 9ae2 62be f702 13be 1efe ff3d 4eb2 2bbe
000001d0: 9eaf 1abe 8180 843d e3bd 523e cdc0 7ebd
000001e0: d1cd 1f3e c42f 143d a975 cc3d d160 0a3e
000001f0: 3096 fc3d 180a 7abe eb4c 03be 4b3f 553e
00000200: 4072 d1bc 5e5d 463e a994 08be df80 2f3e
00000210: a0dd f83d df18 e3bc f288 1cbe e71c b43d
00000220: dcd0 cebe c032 d4bb 11fd e7bd d175 9b3e
00000230: 2352 1e3e 8206 ee3b afa1 ff3d 6d76 5c3e
00000240: 7e50 633c 4eda c0bc 51e7 32be 5425 60be
00000250: 5e4a a73d 9084 f93d cb1d cabd eeac f7be
00000260: a8b3 03be f6f1 493b 6315 0bbf 7868 b63e
00000270: 01a4 38bd d6c5 e43d a0d6 833c d42c bc3e
00000280: fd5b e6bd 670a 363e 6cf3 05be edbd 31be
00000290: b929 213e 9220 46bd 360f f5b9 bfe4 293e
000002a0: 6728 2fbd 6779 973d af36 433e 5087 0cbe
000002b0: 43c8 adbd b155 1dbe 1f82 e0bd a263 2bbe
000002c0: ea37 28bf 721e 433e f6f2 f93d eefe 41be
000002d0: 79d5 513e 9743 d23d 7261 b43d b814 163e
000002e0: acfc 4cbc ba0d 9a3c 8aef 2a3c 3712 02bd
000002f0: 866a 94be bf8d aabd 6e9d 1cbe c9ec 523e
00000300: b993 3bbe 3a7e 85bd 7870 b33c f521 3f3e
00000310: fd65 07bf 2e63 08be 2b61 373e 059c 953d
00000320: b294 d03d cfd9 24be 5445 55bd cf97 b1bc
00000330: fa03 9b3d 60d2 2fbd da6f 843e 3ad2 f73d
00000340: a5bf d4bd a975 3e3e 5078 04bd e3dd 05bd
00000350: 7d4e 193e 03a4 063e 6403 94be 47fb de3e
00000360: 2f0c 12be 9c51 21bd dc6d 953e 2d45 b6be
00000370: aa00 5d3e e0ff 0abc 4a43 843d adbc d2be
00000380: 81d9 0f3f 08c9 4a3d cde1 1bbe b42b 8dbd
00000390: cc6a 6dbd b817 a33c 3c38 89bc 5abc a73d
000003a0: 7a68 bdbd 195b 523e 447b d8bd 7c46 a8bd
000003b0: 1f09 cd3d 855a 513e 8334 50be 393c 373e
000003c0: bbec e3be 0df6 4bbd 797e 153e a56c 163e
000003d0: 4026 aa3c 9e4d 63bc d7b1 563e a756 443e
000003e0: 7ae6 133e 5b87 2dbe 8cad 5abe e687 e23d
000003f0: 5eac b73d 686f 3fbd 4a47 ac3d fb25 80bd

sequential_1/dense_3/MatMul f4 [26, 64]
0.25044817 -0.032073587 0.18959334 -1.1439186 -0.059861306 0.0512268 -1.058029 0.10391188
-1.1511781 -0.5120341 -1.1164236 -1.859688 0.18274997 -0.91189927 0.14519651 -0.287914
-0.8606851 0.21372043 -0.05723419 0.22732505 -0.8470829 -0.06968592 -0.25723612 -0.53431565
0.122280695 0.2548576 -1.337071 -1.1651484 0.07491348 -1.2089394 -0.15001376 0.20508628
-0.8491814 -1.5448203 -1.6744676 0.119643226 0.17611282 0.19073074 0.13197312 -0.59584355
-0.19111717 -0.48601145 -0.08369525 0.3334585 0.22364652 -0.5143815 -0.026727963 0.14882773
-1.2418997 -0.44221422 0.2060433 0.19988297 -0.21846746 -0.86908954 -0.759933 -1.09061
0.092862636 -1.4426584 -0.16043964 -0.53960466 0.19619644 -0.7071254 -1.1522232 -1.5259587
-0.2476575 -1.052106 -1.3441052 0.0558708 0.24404298 0.06217637 0.16935466 -0.19788852
-0.7177038 0.18673018 -0.9344011 0.17498246 -0.76066685 0.25500217 0.008384886 0.19514714
0.101475865 0.22360465 0.09792186 -0.258878 -0.7075521 0.17381285 0.20629638 -0.82118684
-1.7472295 0.07748455 0.24718286 -1.1970423 0.26871398 0.1472958 -0.28447857 -0.03852683
0.2121439 0.13397253 -1.5636375 -1.1144214 -0.8171489 -1.1199919 0.17401326 -0.51732624
0.12503588 -0.88214755 -0.22039586 0.21492161 -1.4798676 -1.7824062 0.101895116 -1.5827807
-1.112541 0.10366332 -1.0753409 -1.0123186 -0.029747343 -0.61119866 -0.45326343 -1.3312063
-0.28143457 -0.8107492 0.048345968 -0.9938227 0.2603276 0.22998938 0.22812468 0.025264971
-0.47815013 -0.8603002 -0.7605572 0.03099734 -0.196571 -1.6128497 0.18631625 -1.4586726
-0.46306798 0.2121334 -0.55313194 0.13472043 -0.63392305 0.33765945 -0.038653266 0.26879844
0.17191641 -0.35875893 0.14549926 -0.51355636 -0.6782325 0.20047662 0.21792305 0.22616178
0.061985046 0.11790478 -0.84501386 0.015899224 -0.64651364 0.10300661 0.15884131 -1.8091687
0.24893145 0.049583007 0.08521354 -2.144634 -0.865214 -1.1063582 0.085113876 -0.5743174
-0.11221128 -0.51183414 0.1412423 -1.0042101 -1.2177198 0.15588848 -1.2351875 -1.9262065
-1.1029038 0.14936276 -0.9242987 -1.0634006 -0.10058206 -1.0129305 -0.7627156 -0.8660501
0.009931318 -1.0429888 0.14051774 0.25016427 0.31265414 0.22917119 -0.0009788217 0.17937991
-0.7418868 0.13727166 -1.2914636 -0.92937714 0.064837776 -0.7550053 0.1545712 -1.3322259
-0.66154075 0.14342883 0.16878235 -0.743903 -0.90076613 -0.3389822 -0.07833528 0.25614625
0.2161514 -1.6634064 0.09916942 -1.1137687 -0.25536263 0.16907063 0.12348847 0.14456317
0.1677921 -1.2623872 -0.60691506 0.13686551 -0.76646006 -0.509215 0.03733548 -0.6906721
-0.3709011 0.032209683 0.18055145 -0.108315624 -1.1716448 -1.3066578 -0.20041366 -1.4048187
0.059658747 -0.5960395 0.23708075 -0.6409633 -0.44297397 0.17826366 -0.9614545 -1.0836055
0.14006123 0.09498514 -0.99345255 -0.9351333 -0.2686364 -1.3873605 -0.1563868 0.064742275
-0.08166586 0.13508186 0.0733199 0.32163087 -0.54225874 -0.7354577 -1.1538236 0.22274476
00000000: be3a 803e 985f 03bd c224 423e ed6b 92bf
00000010: 2131 75bd 31d3 513d 7f6d 87bf c0cf d43d
00000020: ce59 93bf ab14 03bf f8e6 8ebf 420a eebf
00000030: cf22 3b3e 3b72 69bf 65ae 143e 7769 93be
00000040: dc55 5cbf 87d9 5a3e 666e 6abd e6c7 683e
00000050: 6dda 58bf 7eb7 8ebd 74b4 83be e9c8 08bf
00000060: 4d6e fa3d b27c 823e 2425 abbf 9523 95bf
00000070: 3d6c 993d 87be 9abf 359d 19be 2302 523e
00000080: f463 59bf acbc c5bf f454 d6bf 8207 f53d
00000090: eb56 343e eb4e 433e f623 073e 3489 18bf
000000a0: 38b4 43be 7ed6 f8be 6a68 abbd 13bb aa3e
000000b0: 9803 653e 82ae 03bf 9af4 dabc 4c66 183e
000000c0: 92f6 9ebf e769 e2be 04fd 523e 1fae 4c3e
000000d0: efb5 5fbe a77c 5ebf f88a 42bf 1c99 8bbf
000000e0: c42e be3d 08a9 b8bf 4a4a 24be 8823 0abf
000000f0: b8e7 483e 2c06 35bf 0d7c 93bf 9d52 c3bf
00000100: ed99 7dbe 69ab 86bf a40b acbf c8d8 643d
00000110: 67e6 793e a6ac 7e3d 4f6b 2d3e 4aa3 4abe
00000120: 70bb 37bf 3236 3f3e e934 6fbf 9a2e 333e
00000130: 10bb 42bf a58f 823e c360 093c a7d4 473e
00000140: 94d2 cf3d 9ef8 643e 428b c83d a88b 84be
00000150: 2222 35bf fffb 313e 5c3f 533e 4d39 52bf
00000160: 37a5 dfbf 38b0 9e3d 811d 7d3e af38 99bf
00000170: e194 893e b6d4 163e 2da7 91be 4fce 1dbd
00000180: 403c 593e 1830 093e 4625 c8bf 5ca5 8ebf
00000190: ac30 51bf e55b 8fbf 8830 323e 7e6f 04bf
000001a0: 6809 003e 6cd4 61bf 74af 61be 6914 5c3e
000001b0: 4d6c bdbf e325 e4bf 63ae d03d 8f98 cabf
000001c0: be67 8ebf 6f4d d43d c5a4 89bf a893 81bf
000001d0: b3b0 f3bc 8477 1cbf 2512 e8be f864 aabf
000001e0: 3118 90be 428d 4fbf 6c06 463d 2a6b 7ebf
000001f0: a949 853e 5682 6b3e 8499 693e 7cf8 ce3c
00000200: 18d0 f4be a23c 5cbf e0b3 42bf 22ee fd3c
00000210: e949 49be dc71 cebf b0c9 3e3e c9b5 babf
00000220: 3f17 edbe 7f39 593e 0e9a 0dbf 27f4 093e
00000230: c848 22bf b3e1 ac3e e352 1ebd f39f 893e
00000240: db0a 303e 40af b7be c2fd 143e 6e78 03bf
00000250: a5a0 2dbf be49 4d3e 3827 5f3e f496 673e
00000260: 08e4 7d3d 1078 f13d d452 58bf 173f 823c
00000270: eb81 25bf 21f5 d23d 4ca7 223e d792 e7bf
00000280: e3e7 7e3e 8d17 4b3d 7084 ae3d af41 09c0
00000290: aa7e 5dbf 259d 8dbf 2f50 ae3d 7706 13bf
000002a0: 07cf e5bd 9007 03bf d2a1 103e f589 80bf
000002b0: 3ede 9bbf 3ba1 1f3e a01a 9ebf ef8d f6bf
000002c0: f42b 8dbf 8df2 183e d79e 6cbf 831d 88bf
000002d0: f8fd cdbd b5a7 81bf 5441 43bf 76b5 5dbf
000002e0: f8b6 223c a880 85bf e2e3 0f3e 8815 803e
000002f0: 3414 a03e daab 6a3e ce4b 80ba 5eaf 373e
00000300: 4bec 3dbf f190 0c3e ae4e a5bf a9eb 6dbf
00000310: abc9 843d 0748 41bf ea47 1e3e 6186 aabf
00000320: bc5a 29bf 02df 123e 48d5 2c3e 6d70 3ebf
00000330: 9c98 66bf 138f adbe 3f6e a0bd 9a25 833e
00000340: cb56 5d3e 80ea d4bf 5619 cb3d f98f 8ebf
00000350: e4be 82be da20 2d3e 86e7 fc3d 5e08 143e
00000360: b1d1 2b3e e795 a1bf c95e 1bbf 7926 0c3e
00000370: ba36 44bf ea5b 02bf 17ed 183d e3cf 30bf
00000380: c0e6 bdbe 4dee 033d 7be2 383e 95d4 ddbd
00000390: 75f8 95bf 9040 a7bf 3d39 4dbe 19d1 b3bf
000003a0: bb5c 743d 0b96 18bf 4cc5 723e 2c16 24bf
000003b0: 7ccd e2be c08a 363e e221 76bf 96b3 8abf
000003c0: 366c 0f3e 9287 c23d e852 7ebf e564 6fbf
000003d0: b68a 89be 0795 b1bf dc23 20be 9997 843d
000003e0: 6e40 a7bd e652 0a3e be28 963d cdac a43e
000003f0: 78d1 0abf f546 3cbf 7eb0 93bf 3417 643e
